tests/fixtures/roberta-minuscule/pytorch_model.bin (torch, 500196 bytes, 42 tensors)

roberta.embeddings.word_embeddings.weight f4 [256, 64]
00000000: f0c3 9c3b 374d c7bc 332a 12bb e10b 07bd
00000010: 51c0 1bbc 1d83 13bd 5f1a 81bc 00eb 1f3c
00000020: 91d0 0cbd 5d35 efbb 16da c2b8 764a 2abd
00000030: ef75 8ebc c48f 13bd 3f10 efbb e303 2e3d
00000040: 937a bfbb 1d89 053d 7d76 07bd b294 9bbc
00000050: dcec 1e3d 1e68 bbbb 9700 543c c275 413c
00000060: a6fb 843c e39b 263c 36fd 0e3c bef6 43bb
00000070: b49f 9d3c 71de 97bb 2165 373c 22ae 03bd
00000080: fd79 77bc 4ecf 633c c3ea 903c 64dd 3d3c
00000090: 3006 8fbc 4da2 48bc 1891 fc3b 4001 eabc
000000a0: c185 72bc 9b00 443c 6ea1 fb3c c607 2738
000000b0: e16c 91bc 4e51 18bc 991d 90bc 288e a23c
000000c0: 8ae6 003d 7bc3 a53c 9188 27ba 13a6 acbc
000000d0: 190d 43bc 73c1 57bc 05b3 b53b 0fab 873c
000000e0: 18cc 703b 0382 a73c c364 abbc cd4f 0b3c
000000f0: b10b a33b 2965 35bc 4bb0 ca3b 4359 513c
00000100: f4bc 50b9 507d 50b9 6a48 4eb9 18d7 4eb9
00000110: 1f1a 4438 f030 5039 79e3 5039 f3e7 5039
00000120: 5637 4fb9 e0ce 51b9 d57c 3db9 62e2 4e39
00000130: 0896 5139 b8ce 5139 6a6d 4b39 e831 3fb9
00000140: 9eae 51b9 9360 4f39 87fc 35b9 5b39 4938
00000150: a488 4b39 1dcf 5139 822e 51b9 6481 51b9
00000160: 444e 2ab9 cece 5139 f656 5139 5ca8 5039
00000170: 664f 4bb9 4157 3d39 1e7c 5039 accd 5139
00000180: cd16 51b9 5c44 5039 e832 4439 d432 41b9
00000190: bac1 b038 fcce 5139 08c7 5139 596d 51b9
000001a0: 10cb 51b9 8278 50b9 586c 42b9 6d33 5139
000001b0: 0adc 4139 3f98 f6b8 d4ad 41b9 023c 4e39
000001c0: bc38 47b9 3afb 5039 5036 4139 d45a 5139
000001d0: bc21 4fb9 d5c6 5039 968b 4b39 f669 4db9
000001e0: ec8e 51b9 c551 a538 07ec 2338 c6c5 51b9
000001f0: 1a39 4b39 eecd 5139 a6ed 4fb9 8dea 50b9
00000200: 198b 433b 1610 d6ba 07e4 19bd a3b7 223c
00000210: c5c5 6ebc 6c6b c63c 15b0 bbbb acfd eabb
00000220: d59f 95bc f095 4f3c cea4 74bc 4af6 9ebc
00000230: 0846 19ba b3b1 9b3c 753c 503d ccaf 003d
00000240: 87eb 573c 3e17 293d 8e5c adbc a315 06bd
00000250: 1e71 36bc cf77 db3c 2615 8d3c d084 02bd
00000260: e92b 143d d6a3 a73c 2239 d7bb 951c 9d3c
00000270: ab1d 793c d215 4fbc 35ea 19bc 54c5 a03c
00000280: 4de1 19bd 01b2 c9bb 6e54 31bb c935 e4bc
00000290: 0c9b 8aba 990e 313d 73a6 933c 7045 66bb
000002a0: 1ff7 b2bc 51a3 703c a8de bd3b baf4 abbc
000002b0: 4c62 76bc 354b 75bc 5a7b e23c 856f dcbc
000002c0: 2e5d f23b 9b25 9c3b 6ee6 95bc a9d0 11bd
000002d0: 490c b0bb a883 29bd 5e98 5b3c b76d 0ebd
000002e0: 1952 3a3c 1d87 69bc c8b2 19bd e479 7ebc
000002f0: c4e2 f13c dc42 d8bc ae58 013c 46ee 1ebc
00000300: 1591 e7bc a12b 09bc a028 acbb 19c7 3dbc
00000310: c115 6cbc 6410 4b3c 74cd a63b 23b1 fbbb
00000320: d82a 533c 2450 4dbc e41d 8f3c b517 39bc
00000330: cc1d 43bc 3ff3 8e3b aa67 993c f0e0 2fbb
00000340: 5f02 29bd c3ca d53c a263 973c 7fb9 e33b
00000350: 5e76 38bb 1ec3 ea3b 19a4 233c e73e 0ebb
00000360: 9f6f 793b 7d65 73bc f226 9f3b 6572 f63c
00000370: 667d 04bd 2810 04bd b336 853c 2a86 973c
00000380: d438 b23c a277 343c 5e35 7d3c d30a d83c
00000390: cc02 a1bc 86a4 20bc fd4f 343c 1014 a23c
000003a0: e69f c6bc f792 803b dd22 dabc ab66 70bc
000003b0: 199a 0d3c 2e7d 9cba 6c05 ff3c 3330 343c
000003c0: 492f 643c 918f bdbb 7132 0ebc ce61 ac3c
000003d0: b0aa 3cb9 eb1b 3cbc e082 1abd 0112 533b
000003e0: bd80 b03b 0afd 113d 58e6 a5bc 20d2 163d
000003f0: dfc3 88bc 42bb e4bb f513 13bb 3010 3bbc
0.0047840998 -0.024328811 -0.0022302985 -0.032970313 -0.009506301 -0.03601371 -0.015759645 0.009760618
-0.034378592 -0.0073000626 -9.2912625e-05 -0.041574918 -0.01739022 -0.036025777 -0.007295638 0.042484175
-0.0058434694 0.032601465 -0.033071984 -0.018991802 0.038800105 -0.005719199 0.012939594 0.011807861
0.016233277 0.010169002 0.008727362 -0.0029901708 0.019241191 -0.0046346714 0.011193545 -0.032148488
-0.015104768 0.013904406 0.017690068 0.011588428 -0.017459005 -0.012245727 0.007707726 -0.02856505
-0.014802397 0.011963035 0.030716624 3.9823142e-05 -0.017752113 -0.009296728 -0.017592238 0.019843176
0.03146986 0.020234814 -0.00063908944 -0.021075284 -0.011904978 -0.0131686805 0.0055450224 0.01656106
0.0036742743 0.020447737 -0.02092207 0.008502913 0.004975759 -0.011071482 0.0061855665 0.012777629
-0.00019906816 -0.00019883108 -0.00019672667 -0.0001972582 4.675437e-05 0.00019854656 0.00019921166 0.00019922834
-0.00019761673 -0.0002000886 -0.00018070948 0.00019730025 0.00019987684 0.00020008802 0.00019400349 -0.00018233771
-0.00019996843 0.00019777035 -0.00017355579 4.797555e-05 0.00019410491 0.00020008949 -0.00019949119 -0.00019979995
-0.0001624162 0.00020008834 0.00019964189 0.00019899145 -0.00019389167 0.00018056949 0.00019882663 0.00020008412
-0.00019940287 0.00019861892 0.0001871098 -0.00018424849 8.4284184e-05 0.00020008901 0.00020005938 -0.00019972528
-0.0002000744 -0.00019881318 -0.00018541643 0.00019950951 0.00018487885 -0.00011758552 -0.0001847067 0.00019668046
-0.00018999254 0.00019930015 0.00018426147 0.0001996563 -0.00019753625 0.00019910496 0.00019411588 -0.00019589797
-0.00019985036 7.883044e-05 3.9082046e-05 -0.0002000547 0.0001938086 0.00020008508 -0.0001982959 -0.00019923803
0.0029837547 -0.0016331698 -0.03757098 0.009931478 -0.014573519 0.024221145 -0.0057277777 -0.0071713533
-0.01826469 0.012670025 -0.014931871 -0.01940455 -0.0005846922 0.019005632 0.050838906 0.031417653
0.013178713 0.04128193 -0.021162298 -0.032735478 -0.011135368 0.026790528 0.017221998 -0.03186494
0.03617469 0.020463865 -0.00656809 0.019178668 0.015204827 -0.01263948 -0.009394218 0.019625343
-0.03756838 -0.006155253 -0.002705838 -0.027857678 -0.0010574772 0.043226812 0.018023705 -0.0035136603
-0.021846352 0.014687375 0.005794365 -0.020990718 -0.015038084 -0.014971544 0.02764671 -0.026908645
0.007396362 0.004765225 -0.018298354 -0.035599384 -0.0053725583 -0.041385323 0.013403026 -0.0347726
0.011372113 -0.014253405 -0.037524015 -0.015531991 0.029527076 -0.026399069 0.007894678 -0.0097003635
-0.028267423 -0.008372218 -0.0052538663 -0.011583113 -0.014409483 0.012394045 0.00509041 -0.0076810285
0.012888633 -0.012531314 0.017470308 -0.011297156 -0.01190896 0.0043624933 0.018726189 -0.0026836954
-0.041262027 0.02609766 0.018480126 0.006949603 -0.0028146724 0.007164373 0.009987854 -0.0021704973
0.0038060916 -0.01485574 0.0048569376 0.030083844 -0.03234615 -0.03224197 0.016261434 0.018496592
0.021755613 0.011014851 0.015454618 0.026372349 -0.019654654 -0.00980485 0.011005399 0.019784957
-0.024246167 0.0039237696 -0.026627952 -0.014672915 0.008642697 -0.0011939162 0.031130515 0.01099782
0.013927289 -0.0057849367 -0.008679018 0.02104273 -0.00017992663 -0.011481266 -0.03772247 0.0032206776
0.0053864405 0.035641707 -0.020251438 0.036821485 -0.016694961 -0.0069803307 -0.0022442315 -0.011417434

roberta.embeddings.position_embeddings.weight f4 [512, 64]
00000000: cab7 043c a452 e63a aef5 23bc d071 8a3b
00000010: d4e3 8ebc 6af2 c4bc ae04 a7bc d9fe ad3b
00000020: fd01 dd3a 8906 ef3c 3973 47bc c44b 42bc
00000030: d737 afbb feed afbb abb0 f6bc 2934 ddbb
00000040: a5d8 633c a057 dd3b 328a 55bc 3881 babc
00000050: 6529 25bd 0b75 11bd 7e77 b1bb bdb8 86ba
00000060: 4a67 513b 62f9 2d3d 89f4 afba 82ed eb3c
00000070: 34ad b0bc 1cca 37bc c2f9 2b3b 6fa0 24bc
00000080: 930b ec3c 2f17 f03b 6775 633c 7b48 033c
00000090: 7081 9cbc b4c4 50bc a97d a7ba 8296 0b3b
000000a0: 1546 e93c 445a 3ebc 5b1d b5bc e080 2ebb
000000b0: 3c41 d839 d537 6c3b 787e 463c 7d52 113c
000000c0: ca77 c2bb c79d b23b 466a 0c3d 3dc3 bf3c
000000d0: 80ce c8bc c7fb 4b3a eaa0 e8bc 3edd f7bc
000000e0: 7f3b 8a3c fc46 78bb a5ec 4b3c d657 22bc
000000f0: 1502 3a3c 9539 ca3a de09 61bb a1da 0fbc
00000100: 0000 0000 0000 0000 0000 0000 0000 0000
00000110: 0000 0000 0000 0000 0000 0000 0000 0000
00000120: 0000 0000 0000 0000 0000 0000 0000 0000
00000130: 0000 0000 0000 0000 0000 0000 0000 0000
00000140: 0000 0000 0000 0000 0000 0000 0000 0000
00000150: 0000 0000 0000 0000 0000 0000 0000 0000
00000160: 0000 0000 0000 0000 0000 0000 0000 0000
00000170: 0000 0000 0000 0000 0000 0000 0000 0000
00000180: 0000 0000 0000 0000 0000 0000 0000 0000
00000190: 0000 0000 0000 0000 0000 0000 0000 0000
000001a0: 0000 0000 0000 0000 0000 0000 0000 0000
000001b0: 0000 0000 0000 0000 0000 0000 0000 0000
000001c0: 0000 0000 0000 0000 0000 0000 0000 0000
000001d0: 0000 0000 0000 0000 0000 0000 0000 0000
000001e0: 0000 0000 0000 0000 0000 0000 0000 0000
000001f0: 0000 0000 0000 0000 0000 0000 0000 0000
00000200: 52bb 37bd c520 923b b475 42bd d4e3 883c
00000210: 5569 b7bc 62f1 6dbc 7828 473c 8081 f13c
00000220: 73cf d43a cdc0 52bc 3a46 82bc 612c f93b
00000230: e677 0cbb a24e 49bb 93af dc3c 7ec8 863b
00000240: d471 2aba 3373 0f3c e45b 2ebc 8394 2e3d
00000250: b620 953b c516 b83b 4fd3 233a 0d78 f93c
00000260: e0b5 fe3a 3332 0e3c 8137 a83c 0f1e a3bb
00000270: ba70 a0bc d95c a83c 5921 9fbc 07a7 dbbc
00000280: e798 e93c de98 923b daa7 ad3b 012c 39bb
00000290: d633 1fbd df59 39bd 7483 f43b a342 cdbb
000002a0: 97ac c3bc 7407 1dbc 627f 16bc c1ee 8f3c
000002b0: 4088 65bb d9db 5f3b 5fbb ad3c a436 7f3b
000002c0: 9246 773c 85e2 a73b bdb0 ef3b e546 313d
000002d0: edb2 bfbc 0131 fb3b 83a4 c0bb c377 e8bc
000002e0: 839b 143d ae6f 76bc 6e3c 97bc 147e 1bbc
000002f0: addd 21bc fae5 f13c a4ab 4d3b 1a5a 853b
00000300: f2fe 703c d675 aabc 8036 c4ba eab5 0ebc
00000310: 01ac 85bc f993 d13c b979 03bc 7f30 5dbc
00000320: 75ea 743c 7079 fabb 7a47 033c 365b ac3b
00000330: a401 50bc 3dcd e93c 8424 b63b 0272 9a3c
00000340: 3d46 0fbd d8e2 273d dbb6 c63c 4ea1 d439
00000350: 4dc8 c1bc 52da 313d cc25 1b3c 6ae7 6d3b
00000360: 9ee8 ac3c e032 dbbc 202d 2a3c ec56 d93c
00000370: ee8d 2439 6c64 adb9 7780 8c3c ebd7 efbb
00000380: b4b2 d23c adc0 883c c6b6 c13c 3bdd 61bc
00000390: 01d7 a73c a7c8 233d 2ef9 1ebc 93ab b53c
000003a0: 08e9 79bc e9c3 33bc 0b0b 3abb a62c 81bc
000003b0: 4ad9 d93c 59d6 403b e738 70bc 7ee7 fabc
000003c0: f5c8 9fbb 7cd4 103d c2e3 da3b 1f3e bbbc
000003d0: a994 4dbc f5fd 253d d352 96bc 1fc4 5a3b
000003e0: 0a46 033d 8069 4cbc 5949 9cbb db63 86bc
000003f0: d1e7 e7bc 114a 88bc 3f21 80bc f2ff 73bc
0.008100459 0.0017572236 -0.010007305 0.0042249933 -0.017442621 -0.024041373 -0.020387974 0.005309921
0.0016861554 0.02917792 -0.012173467 -0.011858884 -0.005347233 -0.005368947 -0.030113539 -0.0067506027
0.013906633 0.0067548305 -0.013033437 -0.022766694 -0.04032268 -0.03551201 -0.005415856 -0.0010278445
0.0031952434 0.042474158 -0.0013424318 0.028799776 -0.021566965 -0.01121762 0.0026241397 -0.010048016
0.028814113 0.0073269824 0.013882971 0.008012886 -0.01910469 -0.01274221 -0.0012778539 0.0021299426
0.0284758 -0.011618201 -0.022108724 -0.0026627108 0.00041247334 0.003604402 0.012115113 0.008869764
-0.00593469 0.0054509374 0.034281038 0.023408527 -0.02451253 0.0007781353 -0.028397042 -0.030256864
0.016874073 -0.0037884107 0.012446557 -0.009908637 0.011353035 0.0015428538 -0.0034338157 -0.008780153
0.0 0.0 0.0 0.0 0.0 0.0 0.0 0.0
0.0 0.0 0.0 0.0 0.0 0.0 0.0 0.0
0.0 0.0 0.0 0.0 0.0 0.0 0.0 0.0
0.0 0.0 0.0 0.0 0.0 0.0 0.0 0.0
0.0 0.0 0.0 0.0 0.0 0.0 0.0 0.0
0.0 0.0 0.0 0.0 0.0 0.0 0.0 0.0
0.0 0.0 0.0 0.0 0.0 0.0 0.0 0.0
0.0 0.0 0.0 0.0 0.0 0.0 0.0 0.0
-0.044856377 0.004459473 -0.04747553 0.0167102 -0.022389093 -0.014522882 0.012155645 0.029480696
0.0016236141 -0.01286335 -0.015902627 0.0076041673 -0.002143377 -0.0030717035 0.026939189 0.004113256
-0.0006501947 0.008755493 -0.010642026 0.0426221 0.0045510186 0.0056179487 0.0006249444 0.030452752
0.0019432865 0.008678961 0.020534279 -0.0049779485 -0.019585002 0.020552086 -0.019425081 -0.026813043
0.028515292 0.0044737896 0.0052995505 -0.0028254988 -0.038867794 -0.045251723 0.0074619595 -0.006264047
-0.023886008 -0.0095842965 -0.009185644 0.017569901 -0.0035023838 0.003415814 0.02120751 0.003894248
0.015092509 0.005123439 0.00731477 0.0432805 -0.023400748 0.007665754 -0.0058789863 -0.02837742
0.03628112 -0.015041275 -0.018461432 -0.009490509 -0.009879512 0.029528607 0.0031382823 0.004069579
0.014709221 -0.020808142 -0.0014969856 -0.008710364 -0.01631737 0.025583254 -0.008024626 -0.013500332
0.014948477 -0.007643871 0.008012647 0.0052598966 -0.012695704 0.028540248 0.005558552 0.018853191
-0.034979094 0.04098782 0.024257114 0.00040555972 -0.023655081 0.043421097 0.009469461 0.0036301264
0.021107014 -0.026757658 0.010386735 0.026530705 0.00015693132 -0.00033071951 0.0171511 -0.0073194406
0.025719978 0.016693437 0.023646723 -0.013785656 0.020488264 0.03998628 -0.009702964 0.02217654
-0.015253313 -0.010972002 -0.002838793 -0.01576836 0.02659287 0.0029424636 -0.014662004 -0.030627962
-0.004876251 0.03535889 0.006679983 -0.02285677 -0.01254765 0.040525395 -0.01835004 0.0033381057
0.032049216 -0.012476325 -0.004769486 -0.016405037 -0.02830878 -0.01663688 -0.015640853 -0.014892565

roberta.embeddings.token_type_embeddings.weight f4 [1, 64]
00000000: 86c2 a8bc f46a 933b b5fc 59bc efe4 5fbc
00000010: 14d0 c1bc b6e2 643b a9f9 88bc d6cb 9abc
00000020: 57e3 0c3d 2ab3 b6bc cd28 73bc 2286 d03c
00000030: fb82 c83c b6f3 bf3c 6bd7 513c 18cb 813b
00000040: 8d0b 043c 5fca a8bc 35ea 4cbc c2fc b73c
00000050: 120b 14bc d669 8cbc 1bf9 83bc 3ccf 1f3c
00000060: 4b1d 7a3c a20c e73b acc3 ebbb 1f56 533c
00000070: 0728 2dbc 6220 653b 8ed2 3e3c 3415 0d3b
00000080: be6c 44bc fa72 0abb e966 94bb 1771 3e3a
00000090: 14e2 943c c3d7 f73b 7931 2c3a 49d4 cbbc
000000a0: f086 4c3b 486f bfba 38e8 073d 6b62 6c3b
000000b0: b2e8 873c e6ae b9bc 6aa3 323a 2f52 673c
000000c0: 1445 e73c 2dc2 34bc 4a0f 5b3b c010 933c
000000d0: ebe9 56bd e123 e03c fa13 f43b a33d 96bb
000000e0: d4ae 183d 4031 c53b e3dc 01bd d188 a43c
000000f0: fd49 2d3c b08d 4e3c 4bac 893c 7493 cd3c
-0.020600569 0.004498834 -0.013304879 -0.013665422 -0.02365879 0.003492517 -0.01672061 -0.018896025
0.034396496 -0.022302229 -0.014841271 0.025454585 0.024476519 0.02343164 0.012807707 0.0039609782
0.008059395 -0.02060431 -0.012507011 0.022459392 -0.0090358425 -0.01714031 -0.016109994 0.009753998
0.015265773 0.0070510665 -0.0071949568 0.012898951 -0.010568625 0.0034961929 0.01164688 0.002152753
-0.011988817 -0.002112566 -0.0045288694 0.00072647765 0.018174209 0.0075635626 0.00065686513 -0.024881499
0.0031208359 -0.0014605308 0.033180445 0.0036069404 0.01659045 -0.022666406 0.0006814512 0.014118715
0.028231181 -0.011032623 0.003342586 0.017952323 -0.052469175 0.027360858 0.0074486705 -0.0045849844
0.037276104 0.006017834 -0.031704795 0.02008477 0.010576722 0.012607023 0.016805789 0.025094725

roberta.embeddings.LayerNorm.weight f4 [64]
00000000: 3c02 803f 9bf4 7f3f d005 803f 5ef4 7f3f
00000010: 7c06 803f e3f3 7f3f 7c05 803f 81f4 7f3f
00000020: 28f6 7f3f 1201 803f c205 803f 15f7 7f3f
00000030: e900 803f 0d01 803f 5e06 803f 6d01 803f
00000040: 6bf4 7f3f 98f7 7f3f edf3 7f3f 84f4 7f3f
00000050: 0e06 803f e7f3 7f3f 30fe 7f3f f9fd 7f3f
00000060: be05 803f 1cfe 7f3f 0006 803f a4f3 7f3f
00000070: f7f3 7f3f c605 803f 1c06 803f 34f3 7f3f
00000080: 12f5 7f3f 8506 803f 65f3 7f3f 1a06 803f
00000090: 21f6 7f3f d0fc 7f3f f1f3 7f3f 3a01 803f
000000a0: d800 803f f8fc 7f3f 2ff7 7f3f a4f4 7f3f
000000b0: 5a06 803f e1fc 7f3f 67f3 7f3f 2403 803f
000000c0: 0206 803f f7fb 7f3f c805 803f ca05 803f
000000d0: 32fc 7f3f dbfd 7f3f 59f3 7f3f 73f7 7f3f
000000e0: c804 803f 00f4 7f3f dffd 7f3f 8106 803f
000000f0: 54fa 7f3f 2302 803f 80f3 7f3f 6803 803f
1.0000682 0.99982613 1.0001774 0.9998225 1.0001979 0.99981517 1.0001674 0.9998246
0.9998498 1.0000327 1.0001757 0.9998639 1.0000278 1.0000321 1.0001943 1.0000435
0.9998233 0.99987173 0.99981576 0.99982476 1.0001848 0.9998154 0.99997234 0.99996907
1.0001752 0.99997115 1.0001831 0.9998114 0.99981636 1.0001762 1.0001864 0.99980474
0.9998332 1.000199 0.99980766 1.0001862 0.9998494 0.99995136 0.999816 1.0000374
1.0000257 0.99995375 0.9998655 0.99982667 1.0001938 0.9999524 0.9998078 1.0000958
1.0001833 0.9999384 1.0001764 1.0001767 0.99994195 0.9999673 0.99980694 0.9998695
1.0001459 0.9998169 0.9999675 1.0001985 0.99991345 1.0000652 0.99980927 1.000104

roberta.embeddings.LayerNorm.bias f4 [64]
00000000: 44b4 13b9 e0dc 49b9 2807 fd37 9207 3939
00000010: f899 4fb9 ec7d 0eb8 bc19 51b9 3030 3939
00000020: 8052 50b9 1e21 2ab8 7a32 40b9 2af1 3bb8
00000030: 529f 1038 f1c3 39b9 50e6 41b9 1e4e 4739
00000040: dced d9b7 9e68 9638 e945 46b9 ba42 37b9
00000050: c15c 51b9 903b 47b9 f462 5139 53bf 33b8
00000060: d9a5 4039 4b16 9c38 23dc 42b9 aecc 4ab9
00000070: e680 4839 1c51 4139 83dc 4239 bce5 8a38
00000080: 8e1b 3d39 f629 50b9 16af 6538 605c e937
00000090: e057 49b9 8710 5738 f2d3 3e39 a69a 46b8
000000a0: 74f8 3a39 0d59 6fb8 e498 4eb9 bcce 51b9
000000b0: 619a 4639 920f 1438 4b5f 4239 627f 5738
000000c0: 3a59 3939 fe27 4c39 46d7 48b9 c24b 3839
000000d0: 9ef8 0938 482c 4e39 3273 4138 c2b3 4ab8
000000e0: 6fc5 3739 e7a9 45b9 b2d1 0438 62ca 4a39
000000f0: c222 8638 7824 bb38 d2d6 4db9 5778 4038
-0.00014086167 -0.00019251136 3.0163283e-05 0.00017645795 -0.00019798416 -3.3972712e-05 -0.0001994138 0.00017660926
-0.0001986716 -4.0562e-05 -0.00018329351 -4.4808876e-05 3.4480654e-05 -0.00017715969 -0.00018491712 0.0001900722
-2.5979178e-05 7.172044e-05 -0.00018908795 -0.00017477098 -0.00019966347 -0.00019000308 0.00019968656 -4.285511e-05
0.0001837233 7.442812e-05 -0.00018583289 -0.0001934047 0.00019121505 0.0001843613 0.00018583429 6.623144e-05
0.0001803471 -0.00019852057 5.4760916e-05 2.781878e-05 -0.0001920159 5.1275387e-05 0.00018198768 -4.7350906e-05
0.00017830898 -5.7064975e-05 -0.00019702647 -0.00020008808 0.00018940262 3.530045e-05 0.00018536781 5.137863e-05
0.00017676214 0.00019469854 -0.00019153682 0.0001757583 3.2894888e-05 0.00019662187 4.612207e-05 -4.8327965e-05
0.0001752579 -0.00018850678 3.1666546e-05 0.00019339615 6.396092e-05 8.923648e-05 -0.0001963035 4.5888442e-05

roberta.encoder.layer.0.attention.self.query.weight f4 [64, 64]
00000000: 44b1 03bc 7b57 38bd ab90 053d 0457 17bc
00000010: 5400 64bc 4bcb 0c3c 740a 7d3c 3cb8 8e3b
00000020: 9662 00bd dd23 60bc 901e ee3b 0eb4 c0bc
00000030: a638 a7bc bbaf 183d 6a36 913c 8c60 c93c
00000040: be97 0dbd f664 05bc eb7b c83c 463d e03a
00000050: bb98 34bd d0ad 083d 9d22 213c 210e e33a
00000060: d423 523b 6684 803c fd6c 0cbd 4ef8 683c
00000070: d37b 4f3d 46e4 c3bc cba8 a63c 6425 763b
00000080: 06df 473c 9288 17bc d9e7 eb3b dbcc 163c
00000090: 1666 363c 75f1 d3bc 5a75 96bc fa72 8fbc
000000a0: e552 233d 3f8d 25bd 25e7 823b 754c e53b
000000b0: e38c 7fbc 3755 28bd c3d2 f6bc 1ee7 35bd
000000c0: d2ba 68bc 7ad6 10bc e1bf 703b fea4 253c
000000d0: dbe5 b9ba 7475 f13c ae01 c43c 8a0d d23b
000000e0: 8e4d 713c 056f ad3c 72b2 4f3c 8e05 bdbb
000000f0: abf3 aebc 1473 b53c 9943 cdbc 4afd 37bd
00000100: 1357 673c ae50 173c 99d6 a13c e360 f3bb
00000110: 7729 b9bc c414 103c cac8 bbbc b45e 2e3c
00000120: bc97 f4bc 3b76 87bc cbd4 3dbc aa26 fd3c
00000130: 634c 363c ea2a de3c 34cd f93a eb31 fe3b
00000140: f975 aa3c 2917 a03b 9173 c53c 5525 7c3c
00000150: e8d9 d539 7b2c 7abb 7d0f 9fbc 5a35 34bc
00000160: 35e6 4f3c 8d58 283d 09f3 093b 099b 4c3b
00000170: 7510 4cbc 81ed ff3c 991e 693a 6f84 b2bb
00000180: a6f3 75bc 2b9d 943c 86bd aa3c a8da 01bc
00000190: ddeb 12bd 894e 38bd 0769 98bc 7cab 09ba
000001a0: f007 eeba d3ca 043b 7ba5 c83b f34e a6bc
000001b0: a2d1 91bb f6c1 84bc 3fc7 25bb 0fcd 443c
000001c0: 2195 08bc c35c 05bc 1696 74bc fd66 a63b
000001d0: 13f2 f93c 4f13 60bc 9bd4 48bc 9940 17bc
000001e0: 7a0d b7bc 1654 47bc dafa c5bc 5546 fbbb
000001f0: b2b5 9b39 56df 6fbc f028 0cbc 55d3 babc
00000200: ee92 a8bc c617 b23c 26b5 b0bc 4c71 e33c
00000210: b6a4 653a 2fd2 b8bc e5b4 6b3c 0ff3 75bc
00000220: 54b1 ffbc fa2b 90bc c016 f53c aa43 dd3a
00000230: d658 1bbc bd04 b83c aba2 283c 2706 4b3c
00000240: bc74 023b e7ad 983b c012 4bbc d428 853c
00000250: e40d 37bc d4fa 8d3c 9744 a23a bd06 63bb
00000260: 0547 cebb b76f 22bd 8ab4 c3bc 1aa4 2fbd
00000270: a0bc 58bc cadd e6bc 4231 e7bb 4516 b2ba
00000280: 495b 04bd 9ef1 a7ba b177 14bd a69d 243c
00000290: e335 d43b d9a6 d9bb ba82 eb39 01c2 963c
000002a0: d012 abbc bed6 34bd 7f7b 6bbc 3913 8d3a
000002b0: eba2 5dbc ef2d 263c ccf6 af3c 0a40 ea3b
000002c0: 7fde 043c be2e 963b cec1 b3bc f60e babc
000002d0: 150f e7bc 1dbb 74bc 438f 683c 4ccf 893c
000002e0: 5dd5 f23b 7a39 1ebc d668 b5ba 361f babc
000002f0: 0cfd 10bc cea3 f53b 2a75 d53c b269 aebc
00000300: 3673 e4bc 1ce7 9ebc 2613 9abc 8ce0 3a3c
00000310: 5925 6f3c 02fa 053c ef6d b5bc 2ac0 ddbc
00000320: 00db 14bd e70b e93c 4689 3dbb 0825 a43b
00000330: 7bbe 0a3d 098d 42bc a45f febb 267f 7e3b
00000340: c6d3 f3bc fbaa 8bbc d4b9 273c fc4e 18bc
00000350: cca6 583c 159d 5d3c 4c1f d33c 38c6 aabc
00000360: f1b5 52bd 7573 0cbd d107 d8ba 977f b0bb
00000370: 4fd6 c6ba a432 d63c 0ee2 f6bc 0c5b 52bb
00000380: 3c97 2e3b 6a66 7d3c cfd2 b33c 79ce d73c
00000390: 10bc 9d3c 38ed 24bb 9432 13bc c485 513c
000003a0: 0211 e8bc b6ef 453c 1d2d 303c aa36 8bbc
000003b0: 286e 633c 07e2 06bd 17c8 0bbd f79d e13b
000003c0: bd97 513b 64a6 593c ec09 caba c39e ff3c
000003d0: 88e5 183c 5f13 eabc 707e e9bc 0f85 5abc
000003e0: fe79 163d 4d7a 9bba f210 32bd 035b bc3c
000003f0: 6fac c0bb f4cc 65bb bf7a 693c 0aaf 8f3c
-0.008037869 -0.045005303 0.03260867 -0.009237055 -0.013916094 0.008593391 0.015444387 0.0043554585
-0.03134402 -0.0136804255 0.007266827 -0.023523357 -0.020412754 0.037276965 0.017726142 0.02458217
-0.03456854 -0.008141747 0.024473151 0.0017108105 -0.044090968 0.033368886 0.009834913 0.0017322936
0.0032064812 0.015688132 -0.034283627 0.014219357 0.050655197 -0.02391256 0.020344159 0.0037558908
0.012199169 -0.0092488695 0.0071992693 0.009204115 0.011132738 -0.025871972 -0.018366504 -0.01751088
0.039873976 -0.040417906 0.0039948397 0.00699764 -0.015597555 -0.041096892 -0.030129796 -0.044409864
-0.014204698 -0.008840198 0.0036735462 0.010110138 -0.0014182882 0.029474951 0.023926582 0.0064103054
0.014727963 0.021171102 0.012676822 -0.0057684844 -0.021356424 0.0221496 -0.025056647 -0.04491929
0.014119881 0.009235544 0.019755648 -0.0074273213 -0.02260278 0.008794013 -0.022922892 0.010642696
-0.029857509 -0.016535869 -0.011586378 0.030902226 0.01112661 0.027120072 0.0019058348 0.0077574155
0.020808207 0.0048855734 0.024102958 0.01538976 0.0004078888 -0.0038173485 -0.019416565 -0.010999048
0.012689163 0.041100074 0.0021049401 0.0031220338 -0.012455096 0.03124118 0.0008892804 -0.005447916
-0.015011704 0.01814135 0.020842325 -0.007925667 -0.035869468 -0.044996772 -0.018604768 -0.00052516884
-0.0018160325 0.0020262494 0.0061232424 -0.020301318 -0.004450039 -0.016205769 -0.0025295762 0.01201178
-0.008336336 -0.008139792 -0.014928361 0.005078195 0.030510938 -0.0136764785 -0.01225772 -0.00923171
-0.022345293 -0.012166044 -0.024167467 -0.0076682963 0.00029699277 -0.01464065 -0.008554682 -0.02280585
-0.020577874 0.021739852 -0.021570753 0.027763985 0.00087602006 -0.02256116 0.01438639 -0.015011563
-0.031212486 -0.017599095 0.029918075 0.0016881127 -0.009481629 0.022463197 0.010292689 0.012391604
0.0019906005 0.0046594026 -0.012394607 0.01625482 -0.011172745 0.017331518 0.001238006 -0.0034641468
-0.0062950873 -0.03965732 -0.023889799 -0.04288111 -0.013228565 -0.02818193 -0.0070554325 -0.0013586959
-0.03231362 -0.0012813096 -0.03624696 0.010047352 0.0064761504 -0.0066422042 0.00044920092 0.018403055
-0.020882994 -0.044150107 -0.0143727055 0.0010763175 -0.013527612 0.010142787 0.021479987 0.0071487473
0.008109688 0.004583209 -0.021943 -0.022712212 -0.028205434 -0.014937189 0.0141943125 0.01682248
0.007410689 -0.009657258 -0.0013840448 -0.02271996 -0.008849394 0.0074963337 0.026056845 -0.021290634
-0.027886968 -0.01939731 -0.018807959 0.011406075 0.014596307 0.008177282 -0.022147147 -0.02706917
-0.036341667 0.028448058 -0.0028920933 0.0050092973 0.033873063 -0.011874446 -0.007762866 0.003883311
-0.029764067 -0.017049303 0.010237176 -0.009296175 0.013223361 0.013526221 0.02577176 -0.020846471
-0.051443044 -0.034289796 -0.0016481822 -0.0053863036 -0.001517007 0.026147194 -0.030137088 -0.0032097725
0.0026640436 0.015466312 0.021951107 0.026343571 0.019254714 -0.0025165807 -0.008984227 0.01278824
-0.028328422 0.012081077 0.010752943 -0.01699384 0.013881244 -0.0329304 -0.034126367 0.006885286
0.0031981312 0.0132842995 -0.0015414334 0.031203633 0.009332068 -0.02857369 -0.028502673 -0.013337388
0.036737435 -0.001186201 -0.04347319 0.022992617 -0.0058799307 -0.0035064789 0.014250456 0.01753952

roberta.encoder.layer.0.attention.self.query.bias f4 [64]
00000000: 606b 97b8 745a 3db9 b03f 37b9 a042 3e39
00000010: e1a8 c238 d0de 2f39 ed4b 4039 8339 82b8
00000020: 619a 41b9 84f9 3db9 c831 30b9 a73f 3339
00000030: 70f0 3ab9 d81a 39b8 809d 3eb6 e058 45b9
00000040: 43e8 4eb8 4e1f 4cb9 2ab1 2239 86ce 38b8
00000050: 14fd 3439 c4fe 3fb9 3627 38b9 9c61 2839
00000060: 4732 3b39 45c8 3739 97ec 3f39 5284 4eb8
00000070: 3a5b 47b9 74bf c437 0c14 90b8 0bc4 4ab9
00000080: 9bda 48b9 94e3 3db9 cc3b ef37 b2e4 3f39
00000090: 4f36 28b9 8edd 3539 5e92 4e39 e207 1e38
000000a0: e000 3eb9 b430 46b9 28a3 3839 65ad 3e39
000000b0: 4c32 3db9 58f4 3e39 f5b1 1ab9 ce52 80b8
000000c0: 5646 0eb9 651e 3b39 d3f8 4a39 56bf 3ab9
000000d0: 8842 4cb9 c636 1e39 4640 a938 76da 99b8
000000e0: e40f 3fb9 9c55 a4b7 28ce 46b9 2c85 4db9
000000f0: f491 0cb8 5d6e 4639 c42a 3db9 c032 06b9
-7.220241e-05 -0.00018058141 -0.00017475965 0.00018144632 9.282097e-05 0.00016772305 0.00018338831 -6.2095954e-05
-0.00018463425 -0.00018117396 -0.00016803213 0.00017094483 -0.00017827912 -4.4132437e-05 -2.8403883e-06 -0.00018820493
-4.9330538e-05 -0.00019466618 0.00015515523 -4.406136e-05 0.00017260417 -0.00018310087 -0.00017562215 0.00016058091
0.0001785244 0.00017526846 0.00018303316 -4.923746e-05 -0.00019012103 2.3454173e-05 -6.870189e-05 -0.00019337253
-0.00019154923 -0.00018109224 2.8518865e-05 0.00018300375 -0.0001604196 0.0001734404 0.00019700217 3.7677477e-05
-0.00018120138 -0.00018900895 0.00017608388 0.00018184407 -0.00018043182 0.00018210837 -0.00014752879 -6.118939e-05
-0.00013568377 0.00017845033 0.00019356915 -0.0001780962 -0.00019479741 0.00015088459 8.07052e-05 -7.3363e-05
-0.00018221099 -1.9590188e-05 -0.0001895955 -0.00019599934 -3.351453e-05 0.00018923865 -0.00018040376 -0.00012798142

roberta.encoder.layer.0.attention.self.key.weight f4 [64, 64]
00000000: efee 23bd 5e98 d3bb f3a4 6c3c b24e e9bb
00000010: 96ba 3fbb 31ca 9c3c ae31 163a fa16 da3c
00000020: 2060 08bc 0e43 95bc db4f bfbc 00be 053d
00000030: df80 4ebc be54 38bc 7d59 1fba 005b fcbb
00000040: 1b6f c5bc 148d 803c cbf1 bdba 234b b23c
00000050: 5403 b5bc 2a35 d93c e741 7dbc 729b 2db9
00000060: 441a efbc a382 343d 21ea dcbc 298c 713c
00000070: 5add 9e3a 925b 89bc 2f02 b53c 08b0 dfbb
00000080: 1682 7539 8be4 ef3c 28a1 903c 52d3 403d
00000090: c697 ddba c3e4 0cbc 55ab ff3b 0494 d1bc
000000a0: a499 113d 5566 183c 0266 f1b9 ad84 0ebd
000000b0: c382 1d3d 4f3c be3b 4c72 053c 28c4 403c
000000c0: c7a6 083d 3432 15bb c6be 22bd 1a75 adbb
000000d0: ffc2 e7bb c113 f8bb cae1 883c 6a49 80bc
000000e0: 2470 2cbd c8f6 0abd af26 db3a cba5 04bd
000000f0: 14ec 95bc a201 05bc 5fb2 c8bc 7080 babc
00000100: cc56 973b 538d 563b accc df39 9731 a63c
00000110: 5c9c 43bc 8298 2f3d d087 993c a35c 693c
00000120: f31e 2f3d fdcd 013c 8b02 6a3b 0519 793b
00000130: 7aa7 e33c 1f0b a2bc 522d 3e3c 59e9 2d3d
00000140: 6618 df3b d33a f3ba 534d 07bd de3f e3bc
00000150: e4c7 f3bc c817 1c3d 127a b7bc 4010 57bb
00000160: 1328 dfbc 48c2 5bbc b961 4e3d 710b 5cbc
00000170: 60df 743c 4868 e2ba 8ac8 d3bb b6ec 35bc
00000180: b18a bbbc 22bd 873c 7bdf 253c 87a3 963b
00000190: dc36 0ebc a138 02bd 2566 3e3b 9178 39bd
000001a0: 492a 433d 8bfe 21bd ef97 613c 781f 633c
000001b0: d45d 463c 0f8b 533c 0ebe fdba d1fe b0bb
000001c0: b37e e33c 38e5 57bc 8708 0c3c d5df bbbc
000001d0: 74dc 1c3d 1586 a5bc 8399 393d 5f46 fbba
000001e0: 70e9 22bb 947e d93b affe 8c3c 6375 1b3c
000001f0: 6d22 183c a5d8 dd3b 73fb cbbb 6d05 893b
00000200: 79f1 24bc 3171 853b 09d2 643c dde8 1ebb
00000210: bf0e a9bc 51e2 f73c bcec 06bc 9c96 883c
00000220: 55c5 b5bb 2306 9c3b fb93 7f3c b52a 5f3c
00000230: 2846 6bbc 6509 0bbd 3a3d 88bc 66a3 8c3c
00000240: 1617 9d3c b860 77bc 7a31 c8bc 89fd b0bc
00000250: 11ac e5bc 8386 e4ba 5e56 583d fa7e 263b
00000260: 3483 893c 06b2 2a3b 7812 c2bb 8dbc 79bc
00000270: f8a3 9cbc 65cd 45bc 567b de3a 6ac3 0e3b
00000280: d098 08ba 5f72 253b d1b8 c53b 4e71 033b
00000290: 6803 393d b6b1 9abb 2f75 83bd a292 20bd
000002a0: 33e6 b03c 88f5 c7bb e283 62b8 7b4e fc3c
000002b0: 0219 8ebc c81b 6b3c 5dd2 a13b 5b86 47bc
000002c0: 07e7 ae3b c2a4 98bc 7852 cc3c c971 833c
000002d0: f404 41bc 835c af3c 56e6 e8bb c8ac 81bb
000002e0: ad84 90bc 345e c53c 244f fcbc 9418 f9bc
000002f0: 07fd b2bc 926a 80bc 38db 07bd a0a2 f63b
00000300: d357 703c 8429 a03c 999b 3b3d 8fba dc3c
00000310: f250 23bd e313 cbbc 99c1 5bbb 7194 1abb
00000320: 5e41 cf3a 1f19 bc3c d7a1 71bc d810 a8bb
00000330: 65ae 31bb eb9e 54bb 3f53 78bb d033 4c3d
00000340: 406d 683d d622 023c 7ca6 0d3c 504b 3cbc
00000350: 06bd 743b 6041 80bc 43dc 0bbc cd62 efbb
00000360: bc7d 80bc 73bd eabc 7e96 48bb 32c2 133c
00000370: 25bd 853c 5070 cb3c 3876 b0bb 5802 a0bc
00000380: 8fc4 543c f8f8 44bb 12a1 1e3c dc91 233c
00000390: 56b7 b1bb 3c3f de3b 6f91 48bd c7c4 95bb
000003a0: fcd5 cabb 4cd9 e03b 7a92 e9bc 1a0d c0bb
000003b0: 708a 22bc 5e80 ba3c 97e3 503a 1bf5 0ebc
000003c0: 0542 45bc 987a a73c b854 113d 9dfd f73b
000003d0: 0e38 8a3c c64a acbc 271b f13b a15c b0bc
000003e0: 6297 e23c d0d6 bbbb 302a d33b 9576 8b3c
000003f0: 569d 103c ef55 f3bb c7a9 153b 88ec fdbc
-0.040022787 -0.0064573726 0.014443624 -0.007119977 -0.00292555 0.019139381 0.0005729449 0.026622284
-0.008323699 -0.01822045 -0.023353508 0.0326519 -0.012603967 -0.011250673 -0.00060787034 -0.0077012777
-0.02410083 0.015692271 -0.0014491616 0.021764344 -0.022096314 0.026514608 -0.015457607 -0.00016556474
-0.02918733 0.044069897 -0.02696711 0.014742889 0.0012120411 -0.016767297 0.022095768 -0.0068264045
0.00023413482 0.029283782 0.01765497 0.04707653 -0.0016906194 -0.008599463 0.007802407 -0.025583275
0.035546914 0.009301742 -0.00046043104 -0.0347945 0.038454782 0.005805529 0.008144926 0.011765517
0.033362176 -0.002276552 -0.039732717 -0.0052935006 -0.007072806 -0.007570714 0.016709227 -0.015660007
-0.042099133 -0.033926755 0.0016719903 -0.032384675 -0.018301047 -0.008118065 -0.024499116 -0.022766322
0.0046185013 0.0032738044 0.00042686367 0.020287318 -0.011939134 0.042870052 0.018741518 0.014243278
0.042754125 0.007922647 0.0035707082 0.0038009298 0.02778982 -0.019780694 0.011607485 0.042458866
0.0068083284 -0.001855696 -0.033032726 -0.027740415 -0.029758401 0.038108617 -0.022397075 -0.0032816082
-0.027240789 -0.0134130195 0.050386164 -0.013430462 0.014945835 -0.001727351 -0.006463115 -0.0111038
-0.022893282 0.016569678 0.010124083 0.0045971307 -0.008680072 -0.031792287 0.0029052582 -0.045280997
0.04764775 -0.03954939 0.013769134 0.013862483 0.012107331 0.012911572 -0.0019359009 -0.00540147
0.027770376 -0.013177209 0.008546955 -0.02293388 0.038296178 -0.020205537 0.045312416 -0.0019170752
-0.0024858378 0.0066374037 0.017211286 0.009488436 0.0092855515 0.006770211 -0.0062250434 0.004181555
-0.010067337 0.0040723314 0.013966092 -0.0024247684 -0.020636914 0.030259283 -0.008235153 0.016673379
-0.0055472055 0.0047614737 0.015599246 0.013621022 -0.014359988 -0.033944506 -0.016630758 0.017167758
0.019176047 -0.015098743 -0.024437655 -0.02160527 -0.02803615 -0.0017435107 0.05281674 0.0025405274
0.016786195 0.0026046052 -0.005922612 -0.015242708 -0.019121155 -0.012072896 0.0016974013 0.0021783956
-0.0005210759 0.0025245172 0.0060339947 0.0020056549 0.045169264 -0.004720892 -0.06418835 -0.03920234
0.021594143 -0.0061022677 -5.4005424e-05 0.030799141 -0.017345909 0.014349885 0.0049384073 -0.012178029
0.005337599 -0.01863325 0.024941668 0.016045468 -0.011780966 0.021406418 -0.0071075363 -0.0039573647
-0.01764139 0.024092771 -0.030799456 -0.030407228 -0.021849168 -0.015675817 -0.033168048 0.0075267106
0.014669376 0.019551046 0.045802686 0.026944427 -0.039872117 -0.024789756 -0.0033532141 -0.0023587013
0.0015812328 0.022961197 -0.014748058 -0.005128961 -0.0027112004 -0.0032443355 -0.0037891415 0.0498541
0.056744814 0.007942876 0.00864565 -0.011492565 0.0037344112 -0.015656173 -0.008536401 -0.007305479
-0.015684955 -0.02865479 -0.0030607278 0.009018468 0.016325543 0.024833828 -0.0053851865 -0.019532368
0.012986316 -0.0030055624 0.009681957 0.009983506 -0.0054234667 0.0067824405 -0.04896682 -0.004570577
-0.0061900597 0.0068618413 -0.028512228 -0.005860937 -0.009920701 0.022766288 0.0007968484 -0.00872543
-0.012039666 0.0204442 0.035481185 0.007568075 0.016872432 -0.021031749 0.007357973 -0.021528544
0.027660076 -0.0057323948 0.006444238 0.017024318 0.008826574 -0.0074260156 0.002283679 -0.030996576

roberta.encoder.layer.0.attention.self.key.bias f4 [64]
00000000: 5a9e e5b1 372b 0d32 d3f2 e0b1 c81a 3b31
00000010: e487 a530 f85c e131 c803 6b31 a9ab 1ab2
00000020: 8274 b3b1 d78a 8bb2 c821 77b1 5962 8faf
00000030: 3df2 9430 51c9 83b1 3956 e9b0 7215 2332
00000040: 50fc 7230 d8f7 21b1 49e8 86b1 9480 4ab1
00000050: 9596 a631 34e8 1db1 cdc8 2a32 825f c931
00000060: 76e7 53b2 d5ad e2b0 ee38 11b1 ccc7 6331
00000070: 2d93 f730 ac84 7b30 852c 63b1 5fef 0a2e
00000080: d435 24b2 604e 8d2d cfb5 dab1 3afc cdb1
00000090: f08e 0732 d6b6 8fb2 6ae2 8a31 5147 2bb2
000000a0: fdc3 0932 0a0c ed30 262b 41b2 241d 38b1
000000b0: 7729 20b2 d22c 43b1 964c d3b1 609f 92b1
000000c0: 0c49 abb2 d1bb 2e32 27e5 bab1 e9c7 d0b1
000000d0: 8e60 fd31 da32 9a31 13a2 8532 5e78 59b1
000000e0: 811a cf31 b8be e2af d3c0 f331 f33b 00b2
000000f0: d03c 0631 7cb1 0832 98da 05b2 5c3c 14b2
-6.6827797e-09 8.217106e-09 -6.546864e-09 2.7227305e-09 1.2043953e-09 6.558931e-09 3.419915e-09 -9.003011e-09
-5.222831e-09 -1.6244867e-08 -3.5962433e-09 -2.608143e-10 1.0837266e-09 -3.835489e-09 -1.6977487e-09 9.492725e-09
8.8397645e-10 -2.3569466e-09 -3.926321e-09 -2.9467957e-09 4.848355e-09 -2.29785e-09 9.940959e-09 5.860728e-09
-1.2334445e-08 -1.649307e-09 -2.1132638e-09 3.314642e-09 1.8013445e-09 9.1501806e-10 -3.3058154e-09 3.159017e-11
-9.5582955e-09 1.606465e-11 -6.3653043e-09 -5.99496e-09 7.8905344e-09 -1.6730535e-08 4.042069e-09 -9.9697255e-09
8.019012e-09 1.7247441e-09 -1.1243889e-08 -2.6792089e-09 -9.322654e-09 -2.8401712e-09 -6.149615e-09 -4.267278e-09
-1.9940238e-08 1.01708375e-08 -5.439364e-09 -6.076324e-09 7.374246e-09 4.487771e-09 1.555694e-08 -3.1646077e-09
6.027506e-09 -4.1244674e-10 7.0941524e-09 -7.4642115e-09 1.9534134e-09 7.956597e-09 -7.791321e-09 -8.628458e-09

roberta.encoder.layer.0.attention.self.value.weight f4 [64, 64]
00000000: 9239 883c 1588 a5bc cd1c 4ebc d180 4d3a
00000010: 693e c03b 8a6e 9cbc 7e6e 6abd f831 0d3c
00000020: 385b 003d eb4a cf3c cf45 df3b 5d13 aabb
00000030: c28c cd3c d716 4f3b f4fb 2f3c 0fd5 233c
00000040: 62c1 b43b 1784 39bc 8b22 f53c f9ca c1bc
00000050: 879d 1cbc 10f2 23bc 1b23 073c 7912 8abc
00000060: ce7e 133c 2143 b3bc 1353 1ebc 0a2f 23bb
00000070: 0d0c fb3c 093f b9bb 24f3 cf3c ddeb 033c
00000080: 65e8 863c 8377 3d3b c5c8 683c 53a7 253c
00000090: 12ea 453c cfb1 583d 1b05 503c 62bc a2ba
000000a0: f351 e1bb c4c9 6b3a 68e6 67bc 317e b3bb
000000b0: b798 b43b 8f22 773c c38b babb e64e f5bc
000000c0: 2097 b3bc ea11 1bbc e702 ba3c 3c09 25bc
000000d0: 85f8 e5bc 03ee debc eff5 a43b 94fd 8bbb
000000e0: 80ed 6bbc 19b0 92bc 3da2 2cbb e669 933c
000000f0: a02f 9c3c d4cf 863b 6c56 e43a 2c2f b7bc
00000100: 8c3d 2c3b 66e0 cd3c 4b18 bfbc bbdf e43a
00000110: 7113 ad3b 9ceb 7fbb 388c 8a3c c925 cc3b
00000120: 1035 c53b 51f8 463c 432f 0cbc 2039 debc
00000130: 383a a23b 2c77 1bbc d663 503a b912 d0bb
00000140: 111d 2dbd 3921 3c3c 91b9 86bc c2b3 29bd
00000150: b82a 263c c622 a8bc dc6c a5bc 4af3 2fbc
00000160: bd79 5fbc 233b f63a 7a13 4038 9c4d 3a3d
00000170: d236 c4bc 26ed 39bb 81f3 12bc 7c7d 0a3d
00000180: 80a2 e83c 5e55 6ebc 9ca2 7d3c fdb8 cf3c
00000190: ea0a a53c fec2 5d3c 651b 18bd a8be b5bc
000001a0: f130 0fbc 533a 90bc d08c b73c ebc1 19bd
000001b0: 7b6a 7dbc 6a29 6f3c e81b 3e3b 59e7 283c
000001c0: 2857 6fbb 253c 97bb 53ef 98bc 62fc dd3a
000001d0: e282 76bc 8d95 9e3c 3006 dc3c 8faf 0bbd
000001e0: ad6f 8e3b 24fa 89bc 2cc3 863c e9e7 40bc
000001f0: c244 633c d436 ec3a 957a 8bbc 29d7 803c
00000200: 4bf9 0d3c 6cff 55bc 5d46 3bbc 745d 653c
00000210: 4a31 43bc 2684 ddbb 510e 203c 9df7 a33c
00000220: 684b 7ebb 8608 a23c e68f a63c ca1a 903c
00000230: f225 dcbc f2aa efbb 91f5 b13c 71b8 b73c
00000240: e8dd 17bc ec8f 293c 747e 103a 4bdf 933c
00000250: 10cc db3b c27b f4bc 8c49 573c 9d60 b5bb
00000260: 2a71 10bc 6112 653c 1953 bab8 3b77 a43b
00000270: b22f bfbc 9e60 c8bb 22a5 4ebc 90d5 143d
00000280: 87a8 1e3d 664d 06bb b080 bb3c be98 6cbc
00000290: 5c49 aabb e8ec acbb 1858 49bb 49db ff3b
000002a0: b145 fc3c 35c6 06bc 459b 873b 2879 35bb
000002b0: b77e ef3b fcdd 87ba 3972 91bb 77d9 1dbd
000002c0: 07e5 353d 76fd 17bd 96ea b53b 30fe 03bb
000002d0: 83f2 c33c 907a c1bc e9ff 3fbc a817 043c
000002e0: 9026 ea3c dabe 5ebc 81fe 90bc 17b0 22bc
000002f0: 600f b63b 7c9b c2ba fa34 0c3d 53be ac3c
00000300: 0d19 08bd 8a2e 3f3c 8987 353c 6a89 35bd
00000310: 379b 2d3c c21f c83b 2d6c ca3b 87b9 803c
00000320: 5c27 1b3c a526 233a b675 73bc 2c78 93b9
00000330: e176 063c aa76 98bc 2a1c e1bc b099 d93b
00000340: 5f0a 1bbd d2ab c9bc 4d33 293c 0974 b1bb
00000350: 1300 61bc d244 fd3c 8d58 bcbc ba5c 64bb
00000360: 8711 adbc 4a90 8dbc f620 ceba 0d0a 6fbc
00000370: 2b88 7c3b e33a 8abc bba7 d63c 1e3a 1a3c
00000380: 5867 493b 8b66 ed3c cc6f f7bc efa7 253c
00000390: 4c1e eabb afe9 2c3c 7a6b a0bb de48 613a
000003a0: 135c 8fbb ba7c 8c3b 043f 95bc 5a84 623c
000003b0: 69bc 73bc 2e65 3bbc ef61 353c abd5 d23c
000003c0: 5300 7a3d 3274 c1bc 6da9 14bd ecee b73c
000003d0: 4a08 da3a 34f1 473b 7332 61bc f4d1 bcbb
000003e0: b3e4 b5bc 55a8 0abb e87a 74bc 4a24 bb3c
000003f0: c6a5 e23c 9f34 6bbb aedb dabc eebd 813c
0.016629014 -0.02020649 -0.012580109 0.00078393245 0.005866815 -0.019095678 -0.05723428 0.0086178705
0.031336993 0.025304278 0.0068137418 -0.0051902966 0.025091533 0.0031599307 0.010741223 0.009999528
0.005516217 -0.011322997 0.029923698 -0.023656355 -0.009559042 -0.010006443 0.008248116 -0.016854512
0.009002401 -0.021882595 -0.009663361 -0.0024899864 0.030645395 -0.0056532663 0.025384493 0.00805184
0.016468236 0.0028910346 0.014208023 0.010110694 0.0120797325 0.052903946 0.01269653 -0.0012415762
-0.006876224 0.0008994604 -0.014154054 -0.0054776897 0.005511369 0.015083923 -0.0056929304 -0.029944848
-0.021922648 -0.00946472 0.022706462 -0.010073002 -0.028072605 -0.027213102 0.0050342004 -0.004272172
-0.014399886 -0.017906236 -0.0026341819 0.017994832 0.019065678 0.0041141305 0.0017420775 -0.02236136
0.0026281802 0.025131416 -0.023327013 0.0017461696 0.0052818586 -0.0039050346 0.016912565 0.0062300903
0.0060182884 0.012144164 -0.00855619 -0.027126849 0.004950788 -0.009488862 0.0007949447 -0.006349888
-0.042264048 0.01148253 -0.016445907 -0.041431196 0.010142021 -0.020524394 -0.02019351 -0.010739157
-0.0136398645 0.0018785935 4.5794506e-05 0.04548417 -0.023951922 -0.0028370111 -0.008969189 0.033811077
0.028397799 -0.01454672 0.015480664 0.025356764 0.020146806 0.013535259 -0.0371355 -0.022185639
-0.008739696 -0.017605936 0.022406012 -0.03753845 -0.015467281 0.014597276 0.0029008333 0.010309064
-0.0036520455 -0.004615324 -0.018668806 0.0016936178 -0.015045853 0.01935842 0.02685842 -0.034102973
0.004346809 -0.01684291 0.016450487 -0.011774042 0.013871374 0.0018021711 -0.017026225 0.015727596
0.008665393 -0.013061386 -0.01143035 0.013999332 -0.011913607 -0.006760138 0.009769038 0.020015532
-0.003880227 0.019779455 0.020332288 0.017590899 -0.026873562 -0.0073140794 0.02172354 0.022426816
-0.009269215 0.010349255 0.0005512007 0.01805081 0.0067076758 -0.029844169 0.013140094 -0.005535199
-0.008816043 0.013981433 -8.884649e-05 0.005019096 -0.023338173 -0.0061150333 -0.012612613 0.03633648
0.03873494 -0.002049291 0.022888511 -0.014440713 -0.0051967334 -0.005277265 -0.0030722674 0.0078081232
0.03079495 -0.008225967 0.0041383826 -0.0027690623 0.0073088068 -0.0010365839 -0.004438665 -0.03853747
0.04440787 -0.037106954 0.0055516465 -0.0020140521 0.02391935 -0.023618013 -0.011718729 0.008062281
0.028582841 -0.013595307 -0.017699482 -0.009929678 0.005556032 -0.0014847363 0.03423021 0.021086847
-0.033227015 0.011668811 0.011079677 -0.0443205 0.010596088 0.0061073015 0.0061774463 0.015713466
0.009469833 0.0006223715 -0.014859607 -0.0002812756 0.008207054 -0.018611271 -0.02747925 0.0066406354
-0.037851688 -0.024618063 0.010327172 -0.005415444 -0.013732928 0.030916605 -0.022991443 -0.0034845308
-0.021126522 -0.017280716 -0.0015726376 -0.014589799 0.003853331 -0.016873783 0.026203027 0.00941327
0.0030731764 0.02897956 -0.030204676 0.010110839 -0.007144725 0.010553761 -0.0048956247 0.0008593927
-0.00437499 0.0042873295 -0.018218525 0.0138255 -0.014876463 -0.011437697 0.0110707125 0.02573665
0.061035465 -0.023614977 -0.03629439 0.022452794 0.001663455 0.0030508759 -0.013744938 -0.005762333
-0.022203779 -0.0021157463 -0.014921881 0.022844452 0.027666938 -0.003588952 -0.02671608 0.015837636

roberta.encoder.layer.0.attention.self.value.bias f4 [64]
00000000: 6889 4739 1dd2 3fb9 54e0 3bb9 0ece 4fb9
00000010: 6d45 4639 974e 7838 62da 44b9 45e8 4039
00000020: c712 3db8 e4d9 3939 89fd 4f38 e296 3cb9
00000030: a7ad 47b9 debf 13b8 bf93 9fb8 3822 3fb9
00000040: 8845 b7b8 2ceb 3cb9 16d4 4d39 fd65 db38
00000050: 0cfe 4439 db94 45b8 0a34 4bb9 766e 39b9
00000060: de24 4ab9 e0e3 01b9 3267 4339 0413 3ab9
00000070: 30cb 5139 316c 4bb8 2476 e4b7 8627 5139
00000080: 7018 4e39 f0db 4a39 74ab 9d38 488e 43b9
00000090: 89fa 4939 b8b8 e2b7 86ce 22b8 aa96 40b9
000000a0: 4176 29b8 1c51 20b8 3c4e 4fb9 acad 4a39
000000b0: 4820 4eb9 00e5 46b9 744e 4a39 9434 b738
000000c0: 422a 4a39 6489 35b9 b866 0ab8 524d 43b9
000000d0: 43b4 b6b8 922c 4039 5721 5db8 3e08 4b39
000000e0: 053e 4c39 e0dd dd37 ce96 3239 3fc3 ecb8
000000f0: c8dd 1ab8 a2f9 3cb9 de3b 3d39 22c4 4eb9
0.00019029307 -0.00018293453 -0.00017917278 -0.0001981782 0.00018908615 5.9201e-05 -0.0001877337 0.00018397074
-4.50786e-05 0.00017724145 4.958877e-05 -0.00017985285 -0.0001904281 -3.522622e-05 -7.609231e-05 -0.00018227927
-8.739071e-05 -0.00018016685 0.00019629332 0.000104617306 0.00018786656 -4.7107093e-05 -0.00019378975 -0.00017684125
-0.00019277955 -0.00012387289 0.00018635092 -0.00017745426 0.00020007486 -4.8499733e-05 -2.7234732e-05 0.00019946517
0.00019654795 0.00019346154 7.518279e-05 -0.00018649653 0.00019262185 -2.7027316e-05 -3.881615e-05 -0.00018366674
-4.0402872e-05 -3.822251e-05 -0.00019770203 0.00019328919 -0.00019657717 -0.0001896806 0.00019293447 8.7359134e-05
0.00019279963 -0.00017312687 -3.299743e-05 -0.00018625453 -8.712013e-05 0.0001832715 -5.2721556e-05 0.00019362659
0.0001947806 2.6448572e-05 0.00017031582 -0.00011289724 -3.692301e-05 -0.00018022073 0.00018046747 -0.00019718756

roberta.encoder.layer.0.attention.output.dense.weight f4 [64, 64]
00000000: df05 603c 0553 74bb 688b 473c aa2e b13c
00000010: 4932 88bc 7ed9 47bc d8f1 01bc df81 103c
00000020: d718 91bc 0a4d 35bc 5c5c a23c 67d0 8abc
00000030: 7541 ae3c b332 c83c 1518 3c3b 0882 773b
00000040: 3ce1 2a3c d44e be3c 440d 1ebb e652 a1bc
00000050: d6ef 093d b438 3d3c c654 59bb fd9c b43c
00000060: bda3 473c 140b 133c fe67 f2bb 774b eebb
00000070: 7204 af3b d523 213b 4537 fc3c 1f26 0c3c
00000080: 5e0d 25bc 1afc 06bd 36f2 11bc 3fa2 1ebc
00000090: 3cc7 c9bc 9fbe 4abc e0a2 aabc 332d 88bc
000000a0: 970a 103b cd21 d5bb b628 c13c 7f3e d83b
000000b0: b2eb f8bb acfa 043c e2c1 b73c 66f8 98bc
000000c0: 24ff 52bc daf3 00bd b54d 18bd 4142 be3a
000000d0: baff a4bc 9708 083c 28e2 013c 56af 06bb
000000e0: c715 aebc 15d7 cdbb c17f 3cbd c604 8d3c
000000f0: 08cc 0a3c 792f 173d 25e0 d4bc 0f21 333c
00000100: 1e67 f73a 047c 783d 0a39 02bc 0113 253c
00000110: 2a28 4cba 9812 7ebb 42d3 7cbc f656 f13b
00000120: 0352 5b3c f9fc 91bc 66dd c5bb 71bb cf3c
00000130: ad40 a63c 15c8 363c 8532 203d d209 6dbc
00000140: 8845 6b3c 74d4 e13c ddd8 e23c 1a04 1ebc
00000150: 7371 a5bc 1801 48bd b42d d0ba 0d0b 26bb
00000160: 2390 01bc 73bf 2b3c f1fa f73c c51e 3c3c
00000170: 4c2b 10bd 4dff b53c d928 5d3c b927 17bc
00000180: bd79 9b3c 361e 8f3c bc23 e4bb 6250 b53b
00000190: 42e6 b7bc d981 b6bb bafb e03c adb9 e7bc
000001a0: 0e1f a4bb a8e7 bc3b 46d1 76bc fbd7 f13c
000001b0: bb0b 8a3c 178a acbc 4eb8 90bc 7bfd be3b
000001c0: d453 a3bc 9b53 eebc 6a96 163c d7c4 94bc
000001d0: 714a c6bc 5de4 123d ab8f cabc 0ab6 debb
000001e0: 3b49 1dbc 7bb6 96bc 4859 afba e259 11bc
000001f0: a22b 203c 93e3 263d 4d1d 023d 8eee 583a
00000200: cabe 8ebb 8f29 ca3c d076 40bb 3421 343c
00000210: b637 7a3c aa57 c93c 5f14 173d cce0 7fbc
00000220: ba8c afbc 93b0 3bbc decd eabc c733 a83c
00000230: 3081 16bc 5b29 85bc 76a6 74bc 0cf4 6ebc
00000240: 2237 fa3b fecf 143a 8303 98bc e396 1dbd
00000250: 2369 b0bc c6e0 ccbb 8c32 8e3b fa3c d13c
00000260: dbc0 c93b 1dc3 f6ba 1220 8fbc 1715 b93b
00000270: 44e1 963c e500 e53b 278a f73b 160c 513a
00000280: 1ad9 cfbc 7e55 44bc 17eb 82bb 3447 853c
00000290: 6025 6dbc 82f6 96bc dfbf ad3c 8451 0ebd
000002a0: 9498 13ba b8ed b3bb 51c4 7fbb a851 e83c
000002b0: 56fa be3c 3497 c9bc c561 42bd e4bf a93b
000002c0: 977a 9dbc d58f 07bc d606 52bc bcf5 7dbc
000002d0: dd66 c93b 223b 8b3a 9783 bbbc 30e8 c93c
000002e0: 3d6e 903a cab6 1f3d 28cf 0ebd 1e1a d3bc
000002f0: 5192 34bc a182 cc3a bee7 cdbb 9834 9fbb
00000300: 53ce 44bd 4060 a13b 0eee 8c3b 21e5 84bc
00000310: feea d83c 985e 223d e7cb 9bbc fa02 15bd
00000320: 2ead 283d 9651 c13b 84e0 8bbc 5430 19bd
00000330: 5162 f53c b9d2 09bc 0d2e f43b c106 70bc
00000340: bb26 99bc c33a 1cbc 6b53 67bc 1e5d 0e3d
00000350: eb88 0bbc 3ca0 aabc 3ff9 19bc 92a6 403c
00000360: a023 693a ef89 abbc 8589 263b cc94 bb3c
00000370: 8407 5d3c 726e 1d3c 689e 1d3c 491f 4e3c
00000380: cb33 d83c 78df c23c 4a0e 0b3b a48f 543c
00000390: 3220 15bd b121 0d3d a08e 553d bcd0 0bbc
000003a0: 586e df3b 6676 5dbc f0ed c13c 588e 82ba
000003b0: 7be8 cfba cf2b 9bba c1c8 45bc a6bd 98bb
000003c0: 663b 803c 402e 24bd 8b1a 123d 7a73 253c
000003d0: 111b 9f3c d9b3 5b3c e8fc 13bc 069c 44bc
000003e0: 9f9d 0a3d 4507 8d3c 24e8 2ebd 9918 b7bc
000003f0: bc5b 7dbc 7ea0 1d3d 6171 873c 6b95 8ebd
0.013673275 -0.0037280929 0.012179233 0.021628696 -0.01662554 -0.01219785 -0.007931195 0.008820026
-0.01771204 -0.011065731 0.019819431 -0.016945077 0.021271447 0.024438238 0.0028700877 0.0037766714
0.010429677 0.023230948 -0.0024116794 -0.01969285 0.03367599 0.011549164 -0.0033162101 0.022047514
0.012185034 0.008974809 -0.0073976507 -0.0072721797 0.005341106 0.0024588008 0.030788073 0.008554011
-0.010073988 -0.032955267 -0.008907845 -0.009682237 -0.024631135 -0.012374549 -0.020829618 -0.016623115
0.0021978968 -0.0065042735 0.023578983 0.006599247 -0.0075964564 0.008116405 0.022431318 -0.018673133
-0.012878213 -0.031482555 -0.037183482 0.0014515595 -0.020141471 0.008302829 0.007927455 -0.0020551286
-0.021250619 -0.0062817433 -0.046020273 0.01721419 0.008471496 0.036910508 -0.025985787 0.010933175
0.0018875336 0.060665146 -0.0079481695 0.010075332 -0.00077879673 -0.0038768407 -0.015431227 0.007365103
0.013386252 -0.017820822 -0.0060383556 0.025357934 0.020294512 0.011156102 0.03911068 -0.014467673
0.014359839 0.027567126 0.0276913 -0.009644533 -0.020195698 -0.048829168 -0.0015882761 -0.0025336177
-0.0079079 0.010482657 0.030271025 0.011481945 -0.03519754 0.022216463 0.013498508 -0.009225779
0.018978948 0.01747046 -0.0069622677 0.005533264 -0.022448663 -0.0055696783 0.027463783 -0.02828678
-0.005008585 0.0057649203 -0.015064543 0.029521933 0.016851297 -0.02106194 -0.017666008 0.005828557
-0.019937433 -0.0290926 0.009191135 -0.018160267 -0.024205418 0.035862315 -0.02472671 -0.006796603
-0.009599979 -0.01839756 -0.0013378048 -0.008871527 0.009776028 0.040744375 0.031766225 0.00082752935
-0.00435624 0.02467802 -0.0029367693 0.010994244 0.015272072 0.024577934 0.03688466 -0.015617561
-0.021429408 -0.011455673 -0.028662618 0.020532502 -0.009186074 -0.016255071 -0.0149322655 -0.0145845525
0.007635967 0.0005676745 -0.018556362 -0.038473975 -0.021534508 -0.006252381 0.0043395218 0.025541771
0.0061570234 -0.0018826459 -0.017471347 0.005648266 0.018417962 0.006988632 0.007554311 0.0007974518
-0.025372077 -0.011983274 -0.00399531 0.016269304 -0.014474243 -0.018428091 0.021209655 -0.034745708
-0.0005630341 -0.005490985 -0.0039026926 0.02835925 0.023312729 -0.024608232 -0.04745652 0.005180346
-0.019223494 -0.008274038 -0.012819013 -0.015500482 0.0061462955 0.0010622481 -0.022889895 0.024646848
0.0011019182 0.03899268 -0.03486553 -0.02576929 -0.011021213 0.0015602895 -0.0062837293 -0.0048585646
-0.04804833 0.004924804 0.0043008393 -0.016222538 0.02647924 0.039640993 -0.019018127 -0.03637979
0.041180782 0.0058996184 -0.01707483 -0.037399605 0.029954107 -0.008412057 0.0074517787 -0.014650048
-0.018695226 -0.009535494 -0.0141190095 0.034756772 -0.0085165305 -0.020828359 -0.009397804 0.011758463
0.0008893553 -0.020939795 0.0025411558 0.0228981 0.013490561 0.009608852 0.0096202865 0.012580701
0.026391884 0.023788199 0.0021218234 0.0129737 -0.036407657 0.03445596 0.05213797 -0.008533653
0.006818574 -0.013516998 0.023673028 -0.0009960635 -0.0015862131 -0.0011838618 -0.012071789 -0.0046612797
0.015653323 -0.04008317 0.035669845 0.010098333 0.019422086 0.013409578 -0.0090324655 -0.0120000895
0.033841725 0.01721538 -0.042701855 -0.022350596 -0.015463766 0.038483135 0.016533555 -0.06962093

roberta.encoder.layer.0.attention.output.dense.bias f4 [64]
00000000: 069f 4db9 a08a 0ab8 8653 0538 1d20 3939
00000010: f5c9 51b9 b679 3c39 38c7 51b9 0608 3a39
00000020: e46f 45b9 3286 3fb8 cfc7 0cb9 5358 bcb8
00000030: 2a32 1438 7e1b 39b9 19c1 4ab9 660b 4839
00000040: 60b3 3939 7c35 3038 f2ab 43b9 7c51 e537
00000050: 0a3c 51b9 647b 4fb9 f879 3a39 ac8b 16b8
00000060: 94c9 5039 b8ce f337 9224 4bb9 2bda 4db9
00000070: 5608 4d39 394e 3c39 6f1e 4639 2558 c638
00000080: 5c34 4139 a8eb 50b9 303d 7c38 6ad2 38b9
00000090: 0501 50b9 9b0c 2b38 0e6f 3739 9910 7ab8
000000a0: fce3 3e39 64e7 41b8 298b 16b9 effe 4eb9
000000b0: 2b3e 4739 a20d 1038 d69f 4439 5430 8338
000000c0: 5919 3839 95ad 4e39 f367 46b9 565b 3b39
000000d0: d262 3d39 f248 5039 280e 2638 80b6 50b8
000000e0: 5c11 0e39 87a9 46b9 b63d 0038 4b2f 4f39
000000f0: 1568 1439 1d3e 3739 beed 3bb9 7a20 1038
-0.00019609564 -3.303087e-05 3.178746e-05 0.00017654938 -0.00020007028 0.00017974418 -0.00020006008 0.00017741331
-0.00018829067 -4.5662928e-05 -0.00013425875 -8.98099e-05 3.533267e-05 -0.00017653216 -0.00019336156 0.00019077733
0.00017709797 4.201148e-05 -0.00018660704 2.7336871e-05 -0.0001995416 -0.00019787025 0.00017783779 -3.5892866e-05
0.0001991152 2.9064118e-05 -0.00019373212 -0.00019631597 0.00019553429 0.00017958217 0.00018894089 9.457794e-05
0.0001842542 -0.00019924215 6.0138467e-05 -0.00017625993 -0.00019836806 4.0781317e-05 0.00017493611 -5.9620103e-05
0.00018204743 -4.6230285e-05 -0.00014356956 -0.00019740661 0.00019001278 3.4344972e-05 0.0001875156 6.2555686e-05
0.0001755705 0.00019710355 -0.00018921476 0.00017867735 0.00018061258 0.000198636 3.9590668e-05 -4.976103e-05
0.00013548642 -0.00018945905 3.057505e-05 0.00019758676 0.00014153153 0.00017475379 -0.00017922276 3.436252e-05
